…
y_paste=0.0, cfg=None, tracker=botsort.yaml, save_dir=/pscratch/sd/j/jarh1992/malaria-yolo/runs/classify/train7
[34m[1mtrain:[0m /pscratch/sd/j/jarh1992/landslides-prj/data/deslizamiento_deteccion/train... found 378 images in 1 classes ✅ 
[34m[1mval:[0m None...
[34m[1mtest:[0m /pscratch/sd/j/jarh1992/landslides-prj/data/deslizamiento_deteccion/test... found 67 images in 1 classes ✅ 
Overriding model.yaml nc=1000 with nc=1

                   from  n    params  module                                       arguments                     
  0                  -1  1       464  ultralytics.nn.modules.conv.Conv             [3, 16, 3, 2]                 
  1                  -1  1      4672  ultralytics.nn.modules.conv.Conv             [16, 32, 3, 2]                
  2                  -1  1      7360  ultralytics.nn.modules.block.C2f             [32, 32, 1, True]             
  3                  -1  1     18560  ultralytics.nn.modules.conv.Conv             [32, 64, 3, 2]                
  4                  -1  2     49664  ultralytics.nn.modules.block.C2f             [64, 64, 2, True]             
  5                  -1  1     73984  ultralytics.nn.modules.conv.Conv             [64, 128, 3, 2]               
  6                  -1  2    197632  ultralytics.nn.modules.block.C2f             [128, 128, 2, True]           
  7                  -1  1    295424  ultralytics.nn.modules.conv.Conv             [128, 256, 3, 2]              
  8                  -1  1    460288  ultralytics.nn.modules.block.C2f             [256, 256, 1, True]           
  9                  -1  1    331521  ultralytics.nn.modules.head.Classify         [256, 1]                      
YOLOv8n-cls summary: 99 layers, 1439569 parameters, 1439569 gradients, 3.4 GFLOPs
Transferred 156/158 items from pretrained weights
[34m[1mAMP: [0mrunning Automatic Mixed Precision (AMP) checks with YOLOv8n...
[34m[1mAMP: [0mchecks passed ✅
WARNING ⚠️ imgsz=[3000] must be multiple of max stride 32, updating to [3008]
[34m[1mtrain: [0mScanning /pscratch/sd/j/jarh1992/landslides-prj/data/deslizamiento_deteccion/train... 378 images, 0 corrupt: 100%|██████████| 378/378 [00:00<?, ?it/s][34m[1mtrain: [0mScanning /pscratch/sd/j/jarh1992/landslides-prj/data/deslizamiento_deteccion/train... 378 images, 0 corrupt: 100%|██████████| 378/378 [00:00<?, ?it/s]
…
